…
n=None, prediction_len=None, model='policy_last.ckpt', vq=False, one_arm_policy_config=True)


args.backbone resnet18


오른 팔 카메라가 아님!!
False {'layer4': '0', 'residual_block1': '1', 'attention_module1': '2', 'residual_block2': '3', 'attention_module2': '4', 'residual_block3': '5', 'attention_module3': '6'}
1: torch.Size([1, 64, 120, 160])
2: torch.Size([1, 64, 120, 160])
3: torch.Size([1, 128, 60, 80])
4: torch.Size([1, 128, 60, 80])
5: torch.Size([1, 256, 30, 40])
6: torch.Size([1, 256, 30, 40])
0: torch.Size([1, 512, 15, 20])



self.body IntermediateLayerGetter(
  (conv1): Sequential(
    (0): Conv2d(3, 64, kernel_size=(7, 7), stride=(2, 2), padding=(3, 3), bias=False)
    (1): BatchNorm2d(64, eps=1e-05, momentum=0.1, affine=True, track_running_stats=True)
    (2): ReLU(inplace=True)
  )
  (mpool1): MaxPool2d(kernel_size=3, stride=2, padding=1, dilation=1, ceil_mode=False)
  (residual_block1): ResidualBlock(
    (bn1): BatchNorm2d(64, eps=1e-05, momentum=0.1, affine=True, track_running_stats=True)
    (relu): ReLU(inplace=True)
    (conv1): Conv2d(64, 16, kernel_size=(1, 1), stride=(1, 1), bias=False)
    (bn2): BatchNorm2d(16, eps=1e-05, momentum=0.1, affine=True, track_running_stats=True)
    (conv2): Conv2d(16, 16, kernel_size=(3, 3), stride=(1, 1), padding=(1, 1), bias=False)
    (bn3): BatchNorm2d(16, eps=1e-05, momentum=0.1, affine=True, track_running_stats=True)
    (conv3): Conv2d(16, 64, kernel_size=(1, 1), stride=(1, 1), bias=False)
    (conv4): Conv2d(64, 64, kernel_size=(1, 1), stride=(1, 1), bias=False)
  )
  (attention_module1): AttentionModuleStage1(
    (first_residual_blocks): ResidualBlock(
      (bn1): BatchNorm2d(64, eps=1e-05, momentum=0.1, affine=True, track_running_stats=True)
      (relu): ReLU(inplace=True)
      (conv1): Conv2d(64, 16, kernel_size=(1, 1), stride=(1, 1), bias=False)
      (bn2): BatchNorm2d(16, eps=1e-05, momentum=0.1, affine=True, track_running_stats=True)
      (conv2): Conv2d(16, 16, kernel_size=(3, 3), stride=(1, 1), padding=(1, 1), bias=False)
      (bn3): BatchNorm2d(16, eps=1e-05, momentum=0.1, affine=True, track_running_stats=True)
      (conv3): Conv2d(16, 64, kernel_size=(1, 1), stride=(1, 1), bias=False)
      (conv4): Conv2d(64, 64, kernel_size=(1, 1), stride=(1, 1), bias=False)
    )
    (trunk_branches): Sequential(
      (0): ResidualBlock(
        (bn1): BatchNorm2d(64, eps=1e-05, momentum=0.1, affine=True, track_running_stats=True)
        (relu): ReLU(inplace=True)
        (conv1): Conv2d(64, 16, kernel_size=(1, 1), stride=(1, 1), bias=False)
        (bn2): BatchNorm2d(16, eps=1e-05, momentum=0.1, affine=True, track_running_stats=True)
        (conv2): Conv2d(16, 16, kernel_size=(3, 3), stride=(1, 1), padding=(1, 1), bias=False)
        (bn3): BatchNorm2d(16, eps=1e-05, momentum=0.1, affine=True, track_running_stats=True)
        (conv3): Conv2d(16, 64, kernel_size=(1, 1), stride=(1, 1), bias=False)
        (conv4): Conv2d(64, 64, kernel_size=(1, 1), stride=(1, 1), bias=False)
      )
      (1): ResidualBlock(
        (bn1): BatchNorm2d(64, eps=1e-05, momentum=0.1, affine=True, track_running_stats=True)
        (relu): ReLU(inplace=True)
        (conv1): Conv2d(64, 16, kernel_size=(1, 1), stride=(1, 1), bias=False)
        (bn2): BatchNorm2d(16, eps=1e-05, momentum=0.1, affine=True, track_running_stats=True)
        (conv2): Conv2d(16, 16, kernel_size=(3, 3), stride=(1, 1), padding=(1, 1), bias=False)
        (bn3): BatchNorm2d(16, eps=1e-05, momentum=0.1, affine=True, track_running_stats=True)
        (conv3): Conv2d(16, 64, kernel_size=(1, 1), stride=(1, 1), bias=False)
        (conv4): Conv2d(64, 64, kernel_size=(1, 1), stride=(1, 1), bias=False)
      )
    )
    (mpool1): MaxPool2d(kernel_size=3, stride=2, padding=1, dilation=1, ceil_mode=False)
    (softmax1_blocks): ResidualBlock(
      (bn1): BatchNorm2d(64, eps=1e-05, momentum=0.1, affine=True, track_running_stats=True)
      (relu): ReLU(inplace=True)
      (conv1): Conv2d(64, 16, kernel_size=(1, 1), stride=(1, 1), bias=False)
      (bn2): BatchNorm2d(16, eps=1e-05, momentum=0.1, affine=True, track_running_stats=True)
      (conv2): Conv2d(16, 16, kernel_size=(3, 3), stride=(1, 1), padding=(1, 1), bias=False)
      (bn3): BatchNorm2d(16, eps=1e-05, momentum=0.1, affine=True, track_running_stats=True)
      (conv3): Conv2d(16, 64, kernel_size=(1, 1), stride=(1, 1), bias=False)
      (conv4): Conv2d(64, 64, kernel_size=(1, 1), stride=(1, 1), bias=False)
    )
    (skip1_connection_residual_block): ResidualBlock(
      (bn1): BatchNorm2d(64, eps=1e-05, momentum=0.1, affine=True, track_running_stats=True)
      (relu): ReLU(inplace=True)
      (conv1): Conv2d(64, 16, kernel_size=(1, 1), stride=(1, 1), bias=False)
      (bn2): BatchNorm2d(16, eps=1e-05, momentum=0.1, affine=True, track_running_stats=True)
      (conv2): Conv2d(16, 16, kernel_size=(3, 3), stride=(1, 1), padding=(1, 1), bias=False)
      (bn3): BatchNorm2d(16, eps=1e-05, momentum=0.1, affine=True, track_running_stats=True)
      (conv3): Conv2d(16, 64, kernel_size=(1, 1), stride=(1, 1), bias=False)
      (conv4): Conv2d(64, 64, kernel_size=(1, 1), stride=(1, 1), bias=False)
    )
    (mpool2): MaxPool2d(kernel_size=3, stride=2, padding=1, dilation=1, ceil_mode=False)
    (softmax2_blocks): ResidualBlock(
      (bn1): BatchNorm2d(64, eps=1e-05, momentum=0.1, affine=True, track_running_stats=True)
      (relu): ReLU(inplace=True)
      (conv1): Conv2d(64, 16, kernel_size=(1, 1), stride=(1, 1), bias=False)
      (bn2): BatchNorm2d(16, eps=1e-05, momentum=0.1, affine=True, track_running_stats=True)
      (conv2): Conv2d(16, 16, kernel_size=(3, 3), stride=(1, 1), padding=(1, 1), bias=False)
      (bn3): BatchNorm2d(16, eps=1e-05, momentum=0.1, affine=True, track_running_stats=True)
      (conv3): Conv2d(16, 64, kernel_size=(1, 1), stride=(1, 1), bias=False)
      (conv4): Conv2d(64, 64, kernel_size=(1, 1), stride=(1, 1), bias=False)
    )
    (skip2_connection_residual_block): ResidualBlock(
      (bn1): BatchNorm2d(64, eps=1e-05, momentum=0.1, affine=True, track_running_stats=True)
      (relu): ReLU(inplace=True)
      (conv1): Conv2d(64, 16, kernel_size=(1, 1), stride=(1, 1), bias=False)
      (bn2): BatchNorm2d(16, eps=1e-05, momentum=0.1, affine=True, track_running_stats=True)
      (conv2): Conv2d(16, 16, kernel_size=(3, 3), stride=(1, 1), padding=(1, 1), bias=False)
      (bn3): BatchNorm2d(16, eps=1e-05, momentum=0.1, affine=True, track_running_stats=True)
      (conv3): Conv2d(16, 64, kernel_size=(1, 1), stride=(1, 1), bias=False)
      (conv4): Conv2d(64, 64, kernel_size=(1, 1), stride=(1, 1), bias=False)
    )
    (mpool3): MaxPool2d(kernel_size=3, stride=2, padding=1, dilation=1, ceil_mode=False)
    (softmax3_blocks): Sequential(
      (0): ResidualBlock(
        (bn1): BatchNorm2d(64, eps=1e-05, momentum=0.1, affine=True, track_running_stats=True)
        (relu): ReLU(inplace=True)
        (conv1): Conv2d(64, 16, kernel_size=(1, 1), stride=(1, 1), bias=False)
        (bn2): BatchNorm2d(16, eps=1e-05, momentum=0.1, affine=True, track_running_stats=True)
        (conv2): Conv2d(16, 16, kernel_size=(3, 3), stride=(1, 1), padding=(1, 1), bias=False)
        (bn3): BatchNorm2d(16, eps=1e-05, momentum=0.1, affine=True, track_running_stats=True)
        (conv3): Conv2d(16, 64, kernel_size=(1, 1), stride=(1, 1), bias=False)
        (conv4): Conv2d(64, 64, kernel_size=(1, 1), stride=(1, 1), bias=False)
      )
      (1): ResidualBlock(
        (bn1): BatchNorm2d(64, eps=1e-05, momentum=0.1, affine=True, track_running_stats=True)
        (relu): ReLU(inplace=True)
        (conv1): Conv2d(64, 16, kernel_size=(1, 1), stride=(1, 1), bias=False)
        (bn2): BatchNorm2d(16, eps=1e-05, momentum=0.1, affine=True, track_running_stats=True)
        (conv2): Conv2d(16, 16, kernel_size=(3, 3), stride=(1, 1), padding=(1, 1), bias=False)
        (bn3): BatchNorm2d(16, eps=1e-05, momentum=0.1, affine=True, track_running_stats=True)
        (conv3): Conv2d(16, 64, kernel_size=(1, 1), stride=(1, 1), bias=False)
        (conv4): Conv2d(64, 64, kernel_size=(1, 1), stride=(1, 1), bias=False)
      )
    )
    (interpolation3): UpsamplingBilinear2d(size=(30, 40), mode='bilinear')
    (softmax4_blocks): ResidualBlock(
      (bn1): BatchNorm2d(64, eps=1e-05, momentum=0.1, affine=True, track_running_stats=True)
      (relu): ReLU(inplace=True)
      (conv1): Conv2d(64, 16, kernel_size=(1, 1), stride=(1, 1), bias=False)
      (bn2): BatchNorm2d(16, eps=1e-05, momentum=0.1, affine=True, track_running_stats=True)
      (conv2): Conv2d(16, 16, kernel_size=(3, 3), stride=(1, 1), padding=(1, 1), bias=False)
      (bn3): BatchNorm2d(16, eps=1e-05, momentum=0.1, affine=True, track_running_stats=True)
      (conv3): Conv2d(16, 64, kernel_size=(1, 1), stride=(1, 1), bias=False)
      (conv4): Conv2d(64, 64, kernel_size=(1, 1), stride=(1, 1), bias=False)
    )
    (interpolation2): UpsamplingBilinear2d(size=(60, 80), mode='bilinear')
    (softmax5_blocks): ResidualBlock(
      (bn1): BatchNorm2d(64, eps=1e-05, momentum=0.1, affine=True, track_running_stats=True)
      (relu): ReLU(inplace=True)
      (conv1): Conv2d(64, 16, kernel_size=(1, 1), stride=(1, 1), bias=False)
      (bn2): BatchNorm2d(16, eps=1e-05, momentum=0.1, affine=True, track_running_stats=True)
      (conv2): Conv2d(16, 16, kernel_size=(3, 3), stride=(1, 1), padding=(1, 1), bias=False)
      (bn3): BatchNorm2d(16, eps=1e-05, momentum=0.1, affine=True, track_running_stats=True)
      (conv3): Conv2d(16, 64, kernel_size=(1, 1), stride=(1, 1), bias=False)
      (conv4): Conv2d(64, 64, kernel_size=(1, 1), stride=(1, 1), bias=False)
    )
    (interpolation1): UpsamplingBilinear2d(size=(120, 160), mode='bilinear')
    (softmax6_blocks): Sequential(
      (0): BatchNorm2d(64, eps=1e-05, momentum=0.1, affine=True, track_running_stats=True)
      (1): ReLU(inplace=True)
      (2): Conv2d(64, 64, kernel_size=(1, 1), stride=(1, 1), bias=False)
      (3): BatchNorm2d(64, eps=1e-05, momentum=0.1, affine=True, track_running_stats=True)
      (4): ReLU(inplace=True)
      (5): Conv2d(64, 64, kernel_size=(1, 1), stride=(1, 1), bias=False)
      (6): Sigmoid()
    )
    (last_blocks): ResidualBlock(
      (bn1): BatchNorm2d(64, eps=1e-05, momentum=0.1, affine=True, track_running_stats=True)
      (relu): ReLU(inplace=True)
      (conv1): Conv2d(64, 16, kernel_size=(1, 1), stride=(1, 1), bias=False)
      (bn2): BatchNorm2d(16, eps=1e-05, momentum=0.1, affine=True, track_running_stats=True)
      (conv2): Conv2d(16, 16, kernel_size=(3, 3), stride=(1, 1), padding=(1, 1), bias=False)
      (bn3): BatchNorm2d(16, eps=1e-05, momentum=0.1, affine=True, track_running_stats=True)
      (conv3): Conv2d(16, 64, kernel_size=(1, 1), stride=(1, 1), bias=False)
      (conv4): Conv2d(64, 64, kernel_size=(1, 1), stride=(1, 1), bias=False)
    )
  )
  (residual_block2): ResidualBlock(
    (bn1): BatchNorm2d(64, eps=1e-05, momentum=0.1, affine=True, track_running_stats=True)
    (relu): ReLU(inplace=True)
    (conv1): Conv2d(64, 32, kernel_size=(1, 1), stride=(1, 1), bias=False)
    (bn2): BatchNorm2d(32, eps=1e-05, momentum=0.1, affine=True, track_running_stats=True)
    (conv2): Conv2d(32, 32, kernel_size=(3, 3), stride=(2, 2), padding=(1, 1), bias=False)
    (bn3): BatchNorm2d(32, eps=1e-05, momentum=0.1, affine=True, track_running_stats=True)
    (conv3): Conv2d(32, 128, kernel_size=(1, 1), stride=(1, 1), bias=False)
    (conv4): Conv2d(64, 128, kernel_size=(1, 1), stride=(2, 2), bias=False)
  )
  (attention_module2): AttentionModuleStage2(
    (first_residual_blocks): ResidualBlock(
      (bn1): BatchNorm2d(128, eps=1e-05, momentum=0.1, affine=True, track_running_stats=True)
      (relu): ReLU(inplace=True)
      (conv1): Conv2d(128, 32, kernel_size=(1, 1), stride=(1, 1), bias=False)
      (bn2): BatchNorm2d(32, eps=1e-05, momentum=0.1, affine=True, track_running_stats=True)
      (conv2): Conv2d(32, 32, kernel_size=(3, 3), stride=(1, 1), padding=(1, 1), bias=False)
      (bn3): BatchNorm2d(32, eps=1e-05, momentum=0.1, affine=True, track_running_stats=True)
      (conv3): Conv2d(32, 128, kernel_size=(1, 1), stride=(1, 1), bias=False)
      (conv4): Conv2d(128, 128, kernel_size=(1, 1), stride=(1, 1), bias=False)
    )
    (trunk_branches): Sequential(
      (0): ResidualBlock(
        (bn1): BatchNorm2d(128, eps=1e-05, momentum=0.1, affine=True, track_running_stats=True)
        (relu): ReLU(inplace=True)
        (conv1): Conv2d(128, 32, kernel_size=(1, 1), stride=(1, 1), bias=False)
        (bn2): BatchNorm2d(32, eps=1e-05, momentum=0.1, affine=True, track_running_stats=True)
        (conv2): Conv2d(32, 32, kernel_size=(3, 3), stride=(1, 1), padding=(1, 1), bias=False)
        (bn3): BatchNorm2d(32, eps=1e-05, momentum=0.1, affine=True, track_running_stats=True)
        (conv3): Conv2d(32, 128, kernel_size=(1, 1), stride=(1, 1), bias=False)
        (conv4): Conv2d(128, 128, kernel_size=(1, 1), stride=(1, 1), bias=False)
      )
      (1): ResidualBlock(
        (bn1): BatchNorm2d(128, eps=1e-05, momentum=0.1, affine=True, track_running_stats=True)
        (relu): ReLU(inplace=True)
        (conv1): Conv2d(128, 32, kernel_size=(1, 1), stride=(1, 1), bias=False)
        (bn2): BatchNorm2d(32, eps=1e-05, momentum=0.1, affine=True, track_running_stats=True)
        (conv2): Conv2d(32, 32, kernel_size=(3, 3), stride=(1, 1), padding=(1, 1), bias=False)
        (bn3): BatchNorm2d(32, eps=1e-05, momentum=0.1, affine=True, track_running_stats=True)
        (conv3): Conv2d(32, 128, kernel_size=(1, 1), stride=(1, 1), bias=False)
        (conv4): Conv2d(128, 128, kernel_size=(1, 1), stride=(1, 1), bias=False)
      )
    )
    (mpool1): MaxPool2d(kernel_size=3, stride=2, padding=1, dilation=1, ceil_mode=False)
    (softmax1_blocks): ResidualBlock(
      (bn1): BatchNorm2d(128, eps=1e-05, momentum=0.1, affine=True, track_running_stats=True)
      (relu): ReLU(inplace=True)
      (conv1): Conv2d(128, 32, kernel_size=(1, 1), stride=(1, 1), bias=False)
      (bn2): BatchNorm2d(32, eps=1e-05, momentum=0.1, affine=True, track_running_stats=True)
      (conv2): Conv2d(32, 32, kernel_size=(3, 3), stride=(1, 1), padding=(1, 1), bias=False)
      (bn3): BatchNorm2d(32, eps=1e-05, momentum=0.1, affine=True, track_running_stats=True)
      (conv3): Conv2d(32, 128, kernel_size=(1, 1), stride=(1, 1), bias=False)
      (conv4): Conv2d(128, 128, kernel_size=(1, 1), stride=(1, 1), bias=False)
    )
    (skip1_connection_residual_block): ResidualBlock(
      (bn1): BatchNorm2d(128, eps=1e-05, momentum=0.1, affine=True, track_running_stats=True)
      (relu): ReLU(inplace=True)
      (conv1): Conv2d(128, 32, kernel_size=(1, 1), stride=(1, 1), bias=False)
      (bn2): BatchNorm2d(32, eps=1e-05, momentum=0.1, affine=True, track_running_stats=True)
      (conv2): Conv2d(32, 32, kernel_size=(3, 3), stride=(1, 1), padding=(1, 1), bias=False)
      (bn3): BatchNorm2d(32, eps=1e-05, momentum=0.1, affine=True, track_running_stats=True)
      (conv3): Conv2d(32, 128, kernel_size=(1, 1), stride=(1, 1), bias=False)
      (conv4): Conv2d(128, 128, kernel_size=(1, 1), stride=(1, 1), bias=False)
    )
    (mpool2): MaxPool2d(kernel_size=3, stride=2, padding=1, dilation=1, ceil_mode=False)
    (softmax2_blocks): Sequential(
      (0): ResidualBlock(
        (bn1): BatchNorm2d(128, eps=1e-05, momentum=0.1, affine=True, track_running_stats=True)
        (relu): ReLU(inplace=True)
        (conv1): Conv2d(128, 32, kernel_size=(1, 1), stride=(1, 1), bias=False)
        (bn2): BatchNorm2d(32, eps=1e-05, momentum=0.1, affine=True, track_running_stats=True)
        (conv2): Conv2d(32, 32, kernel_size=(3, 3), stride=(1, 1), padding=(1, 1), bias=False)
        (bn3): BatchNorm2d(32, eps=1e-05, momentum=0.1, affine=True, track_running_stats=True)
        (conv3): Conv2d(32, 128, kernel_size=(1, 1), stride=(1, 1), bias=False)
        (conv4): Conv2d(128, 128, kernel_size=(1, 1), stride=(1, 1), bias=False)
      )
      (1): ResidualBlock(
        (bn1): BatchNorm2d(128, eps=1e-05, momentum=0.1, affine=True, track_running_stats=True)
        (relu): ReLU(inplace=True)
        (conv1): Conv2d(128, 32, kernel_size=(1, 1), stride=(1, 1), bias=False)
        (bn2): BatchNorm2d(32, eps=1e-05, momentum=0.1, affine=True, track_running_stats=True)
        (conv2): Conv2d(32, 32, kernel_size=(3, 3), stride=(1, 1), padding=(1, 1), bias=False)
        (bn3): BatchNorm2d(32, eps=1e-05, momentum=0.1, affine=True, track_running_stats=True)
        (conv3): Conv2d(32, 128, kernel_size=(1, 1), stride=(1, 1), bias=False)
        (conv4): Conv2d(128, 128, kernel_size=(1, 1), stride=(1, 1), bias=False)
      )
    )
    (interpolation2): UpsamplingBilinear2d(size=(30, 40), mode='bilinear')
    (softmax3_blocks): ResidualBlock(
      (bn1): BatchNorm2d(128, eps=1e-05, momentum=0.1, affine=True, track_running_stats=True)
      (relu): ReLU(inplace=True)
      (conv1): Conv2d(128, 32, kernel_size=(1, 1), stride=(1, 1), bias=False)
      (bn2): BatchNorm2d(32, eps=1e-05, momentum=0.1, affine=True, track_running_stats=True)
      (conv2): Conv2d(32, 32, kernel_size=(3, 3), stride=(1, 1), padding=(1, 1), bias=False)
      (bn3): BatchNorm2d(32, eps=1e-05, momentum=0.1, affine=True, track_running_stats=True)
      (conv3): Conv2d(32, 128, kernel_size=(1, 1), stride=(1, 1), bias=False)
      (conv4): Conv2d(128, 128, kernel_size=(1, 1), stride=(1, 1), bias=False)
    )
    (interpolation1): UpsamplingBilinear2d(size=(60, 80), mode='bilinear')
    (softmax4_blocks): Sequential(
      (0): BatchNorm2d(128, eps=1e-05, momentum=0.1, affine=True, track_running_stats=True)
      (1): ReLU(inplace=True)
      (2): Conv2d(128, 128, kernel_size=(1, 1), stride=(1, 1), bias=False)
      (3): BatchNorm2d(128, eps=1e-05, momentum=0.1, affine=True, track_running_stats=True)
      (4): ReLU(inplace=True)
      (5): Conv2d(128, 128, kernel_size=(1, 1), stride=(1, 1), bias=False)
      (6): Sigmoid()
    )
    (last_blocks): ResidualBlock(
      (bn1): BatchNorm2d(128, eps=1e-05, momentum=0.1, affine=True, track_running_stats=True)
      (relu): ReLU(inplace=True)
      (conv1): Conv2d(128, 32, kernel_size=(1, 1), stride=(1, 1), bias=False)
      (bn2): BatchNorm2d(32, eps=1e-05, momentum=0.1, affine=True, track_running_stats=True)
      (conv2): Conv2d(32, 32, kernel_size=(3, 3), stride=(1, 1), padding=(1, 1), bias=False)
      (bn3): BatchNorm2d(32, eps=1e-05, momentum=0.1, affine=True, track_running_stats=True)
      (conv3): Conv2d(32, 128, kernel_size=(1, 1), stride=(1, 1), bias=False)
      (conv4): Conv2d(128, 128, kernel_size=(1, 1), stride=(1, 1), bias=False)
    )
  )
  (residual_block3): ResidualBlock(
    (bn1): BatchNorm2d(128, eps=1e-05, momentum=0.1, affine=True, track_running_stats=True)
    (relu): ReLU(inplace=True)
    (conv1): Conv2d(128, 64, kernel_size=(1, 1), stride=(1, 1), bias=False)
    (bn2): BatchNorm2d(64, eps=1e-05, momentum=0.1, affine=True, track_running_stats=True)
    (conv2): Conv2d(64, 64, kernel_size=(3, 3), stride=(2, 2), padding=(1, 1), bias=False)
    (bn3): BatchNorm2d(64, eps=1e-05, momentum=0.1, affine=True, track_running_stats=True)
    (conv3): Conv2d(64, 256, kernel_size=(1, 1), stride=(1, 1), bias=False)
    (conv4): Conv2d(128, 256, kernel_size=(1, 1), stride=(2, 2), bias=False)
  )
  (attention_module3): AttentionModuleStage3(
    (first_residual_blocks): ResidualBlock(
      (bn1): BatchNorm2d(256, eps=1e-05, momentum=0.1, affine=True, track_running_stats=True)
      (relu): ReLU(inplace=True)
      (conv1): Conv2d(256, 64, kernel_size=(1, 1), stride=(1, 1), bias=False)
      (bn2): BatchNorm2d(64, eps=1e-05, momentum=0.1, affine=True, track_running_stats=True)
      (conv2): Conv2d(64, 64, kernel_size=(3, 3), stride=(1, 1), padding=(1, 1), bias=False)
      (bn3): BatchNorm2d(64, eps=1e-05, momentum=0.1, affine=True, track_running_stats=True)
      (conv3): Conv2d(64, 256, kernel_size=(1, 1), stride=(1, 1), bias=False)
      (conv4): Conv2d(256, 256, kernel_size=(1, 1), stride=(1, 1), bias=False)
    )
    (trunk_branches): Sequential(
      (0): ResidualBlock(
        (bn1): BatchNorm2d(256, eps=1e-05, momentum=0.1, affine=True, track_running_stats=True)
        (relu): ReLU(inplace=True)
        (conv1): Conv2d(256, 64, kernel_size=(1, 1), stride=(1, 1), bias=False)
        (bn2): BatchNorm2d(64, eps=1e-05, momentum=0.1, affine=True, track_running_stats=True)
        (conv2): Conv2d(64, 64, kernel_size=(3, 3), stride=(1, 1), padding=(1, 1), bias=False)
        (bn3): BatchNorm2d(64, eps=1e-05, momentum=0.1, affine=True, track_running_stats=True)
        (conv3): Conv2d(64, 256, kernel_size=(1, 1), stride=(1, 1), bias=False)
        (conv4): Conv2d(256, 256, kernel_size=(1, 1), stride=(1, 1), bias=False)
      )
      (1): ResidualBlock(
        (bn1): BatchNorm2d(256, eps=1e-05, momentum=0.1, affine=True, track_running_stats=True)
        (relu): ReLU(inplace=True)
        (conv1): Conv2d(256, 64, kernel_size=(1, 1), stride=(1, 1), bias=False)
        (bn2): BatchNorm2d(64, eps=1e-05, momentum=0.1, affine=True, track_running_stats=True)
        (conv2): Conv2d(64, 64, kernel_size=(3, 3), stride=(1, 1), padding=(1, 1), bias=False)
        (bn3): BatchNorm2d(64, eps=1e-05, momentum=0.1, affine=True, track_running_stats=True)
        (conv3): Conv2d(64, 256, kernel_size=(1, 1), stride=(1, 1), bias=False)
        (conv4): Conv2d(256, 256, kernel_size=(1, 1), stride=(1, 1), bias=False)
      )
    )
    (mpool1): MaxPool2d(kernel_size=3, stride=2, padding=1, dilation=1, ceil_mode=False)
    (softmax1_blocks): Sequential(
      (0): ResidualBlock(
        (bn1): BatchNorm2d(256, eps=1e-05, momentum=0.1, affine=True, track_running_stats=True)
        (relu): ReLU(inplace=True)
        (conv1): Conv2d(256, 64, kernel_size=(1, 1), stride=(1, 1), bias=False)
        (bn2): BatchNorm2d(64, eps=1e-05, momentum=0.1, affine=True, track_running_stats=True)
        (conv2): Conv2d(64, 64, kernel_size=(3, 3), stride=(1, 1), padding=(1, 1), bias=False)
        (bn3): BatchNorm2d(64, eps=1e-05, momentum=0.1, affine=True, track_running_stats=True)
        (conv3): Conv2d(64, 256, kernel_size=(1, 1), stride=(1, 1), bias=False)
        (conv4): Conv2d(256, 256, kernel_size=(1, 1), stride=(1, 1), bias=False)
      )
      (1): ResidualBlock(
        (bn1): BatchNorm2d(256, eps=1e-05, momentum=0.1, affine=True, track_running_stats=True)
        (relu): ReLU(inplace=True)
        (conv1): Conv2d(256, 64, kernel_size=(1, 1), stride=(1, 1), bias=False)
        (bn2): BatchNorm2d(64, eps=1e-05, momentum=0.1, affine=True, track_running_stats=True)
        (conv2): Conv2d(64, 64, kernel_size=(3, 3), stride=(1, 1), padding=(1, 1), bias=False)
        (bn3): BatchNorm2d(64, eps=1e-05, momentum=0.1, affine=True, track_running_stats=True)
        (conv3): Conv2d(64, 256, kernel_size=(1, 1), stride=(1, 1), bias=False)
        (conv4): Conv2d(256, 256, kernel_size=(1, 1), stride=(1, 1), bias=False)
      )
    )
    (interpolation1): UpsamplingBilinear2d(size=(30, 40), mode='bilinear')
    (softmax2_blocks): Sequential(
      (0): BatchNorm2d(256, eps=1e-05, momentum=0.1, affine=True, track_running_stats=True)
      (1): ReLU(inplace=True)
      (2): Conv2d(256, 256, kernel_size=(1, 1), stride=(1, 1), bias=False)
      (3): BatchNorm2d(256, eps=1e-05, momentum=0.1, affine=True, track_running_stats=True)
      (4): ReLU(inplace=True)
      (5): Conv2d(256, 256, kernel_size=(1, 1), stride=(1, 1), bias=False)
      (6): Sigmoid()
    )
    (last_blocks): ResidualBlock(
      (bn1): BatchNorm2d(256, eps=1e-05, momentum=0.1, affine=True, track_running_stats=True)
      (relu): ReLU(inplace=True)
      (conv1): Conv2d(256, 64, kernel_size=(1, 1), stride=(1, 1), bias=False)
      (bn2): BatchNorm2d(64, eps=1e-05, momentum=0.1, affine=True, track_running_stats=True)
      (conv2): Conv2d(64, 64, kernel_size=(3, 3), stride=(1, 1), padding=(1, 1), bias=False)
      (bn3): BatchNorm2d(64, eps=1e-05, momentum=0.1, affine=True, track_running_stats=True)
      (conv3): Conv2d(64, 256, kernel_size=(1, 1), stride=(1, 1), bias=False)
      (conv4): Conv2d(256, 256, kernel_size=(1, 1), stride=(1, 1), bias=False)
    )
  )
  (layer4): Sequential(
    (0): ResidualBlock(
      (bn1): BatchNorm2d(256, eps=1e-05, momentum=0.1, affine=True, track_running_stats=True)
      (relu): ReLU(inplace=True)
      (conv1): Conv2d(256, 128, kernel_size=(1, 1), stride=(1, 1), bias=False)
      (bn2): BatchNorm2d(128, eps=1e-05, momentum=0.1, affine=True, track_running_stats=True)
      (conv2): Conv2d(128, 128, kernel_size=(3, 3), stride=(2, 2), padding=(1, 1), bias=False)
      (bn3): BatchNorm2d(128, eps=1e-05, momentum=0.1, affine=True, track_running_stats=True)
      (conv3): Conv2d(128, 512, kernel_size=(1, 1), stride=(1, 1), bias=False)
      (conv4): Conv2d(256, 512, kernel_size=(1, 1), stride=(2, 2), bias=False)
    )
    (1): ResidualBlock(
      (bn1): BatchNorm2d(512, eps=1e-05, momentum=0.1, affine=True, track_running_stats=True)
      (relu): ReLU(inplace=True)
      (conv1): Conv2d(512, 128, kernel_size=(1, 1), stride=(1, 1), bias=False)
      (bn2): BatchNorm2d(128, eps=1e-05, momentum=0.1, affine=True, track_running_stats=True)
      (conv2): Conv2d(128, 128, kernel_size=(3, 3), stride=(1, 1), padding=(1, 1), bias=False)
      (bn3): BatchNorm2d(128, eps=1e-05, momentum=0.1, affine=True, track_running_stats=True)
      (conv3): Conv2d(128, 512, kernel_size=(1, 1), stride=(1, 1), bias=False)
      (conv4): Conv2d(512, 512, kernel_size=(1, 1), stride=(1, 1), bias=False)
    )
    (2): ResidualBlock(
      (bn1): BatchNorm2d(512, eps=1e-05, momentum=0.1, affine=True, track_running_stats=True)
      (relu): ReLU(inplace=True)
      (conv1): Conv2d(512, 128, kernel_size=(1, 1), stride=(1, 1), bias=False)
      (bn2): BatchNorm2d(128, eps=1e-05, momentum=0.1, affine=True, track_running_stats=True)
      (conv2): Conv2d(128, 128, kernel_size=(3, 3), stride=(1, 1), padding=(1, 1), bias=False)
      (bn3): BatchNorm2d(128, eps=1e-05, momentum=0.1, affine=True, track_running_stats=True)
      (conv3): Conv2d(128, 512, kernel_size=(1, 1), stride=(1, 1), bias=False)
      (conv4): Conv2d(512, 512, kernel_size=(1, 1), stride=(1, 1), bias=False)
    )
    (3): BatchNorm2d(512, eps=1e-05, momentum=0.1, affine=True, track_running_stats=True)
  )
)
Use VQ: False, None, None
number of parameters: 86.90M


model DETRVAE(
  (transformer): Transformer(
    (encoder): TransformerEncoder(
      (layers): ModuleList(
        (0-3): 4 x TransformerEncoderLayer(
          (self_attn): MultiheadAttention(
            (out_proj): NonDynamicallyQuantizableLinear(in_features=512, out_features=512, bias=True)
          )
          (linear1): Linear(in_features=512, out_features=3200, bias=True)
          (dropout): Dropout(p=0.1, inplace=False)
          (linear2): Linear(in_features=3200, out_features=512, bias=True)
          (norm1): LayerNorm((512,), eps=1e-05, elementwise_affine=True)
          (norm2): LayerNorm((512,), eps=1e-05, elementwise_affine=True)
          (dropout1): Dropout(p=0.1, inplace=False)
          (dropout2): Dropout(p=0.1, inplace=False)
        )
      )
    )
    (decoder): TransformerDecoder(
      (layers): ModuleList(
        (0-6): 7 x TransformerDecoderLayer(
          (self_attn): MultiheadAttention(
            (out_proj): NonDynamicallyQuantizableLinear(in_features=512, out_features=512, bias=True)
          )
          (multihead_attn): MultiheadAttention(
            (out_proj): NonDynamicallyQuantizableLinear(in_features=512, out_features=512, bias=True)
          )
          (linear1): Linear(in_features=512, out_features=3200, bias=True)
          (dropout): Dropout(p=0.1, inplace=False)
          (linear2): Linear(in_features=3200, out_features=512, bias=True)
          (norm1): LayerNorm((512,), eps=1e-05, elementwise_affine=True)
          (norm2): LayerNorm((512,), eps=1e-05, elementwise_affine=True)
          (norm3): LayerNorm((512,), eps=1e-05, elementwise_affine=True)
          (dropout1): Dropout(p=0.1, inplace=False)
          (dropout2): Dropout(p=0.1, inplace=False)
          (dropout3): Dropout(p=0.1, inplace=False)
        )
      )
      (norm): LayerNorm((512,), eps=1e-05, elementwise_affine=True)
    )
  )
  (encoder): TransformerEncoder(
    (layers): ModuleList(
      (0-3): 4 x TransformerEncoderLayer(
        (self_attn): MultiheadAttention(
          (out_proj): NonDynamicallyQuantizableLinear(in_features=512, out_features=512, bias=True)
        )
        (linear1): Linear(in_features=512, out_features=3200, bias=True)
        (dropout): Dropout(p=0.1, inplace=False)
        (linear2): Linear(in_features=3200, out_features=512, bias=True)
        (norm1): LayerNorm((512,), eps=1e-05, elementwise_affine=True)
        (norm2): LayerNorm((512,), eps=1e-05, elementwise_affine=True)
        (dropout1): Dropout(p=0.1, inplace=False)
        (dropout2): Dropout(p=0.1, inplace=False)
      )
    )
  )
  (action_head): Linear(in_features=512, out_features=8, bias=True)
  (is_pad_head): Linear(in_features=512, out_features=1, bias=True)
  (query_embed): Embedding(75, 512)
  (input_proj): Conv2d(512, 512, kernel_size=(1, 1), stride=(1, 1))
  (backbones): ModuleList(
    (0): Joiner(
      (0): Backbone(
        (body): IntermediateLayerGetter(
          (conv1): Conv2d(3, 64, kernel_size=(7, 7), stride=(2, 2), padding=(3, 3), bias=False)
          (bn1): FrozenBatchNorm2d()
          (relu): ReLU(inplace=True)
          (maxpool): MaxPool2d(kernel_size=3, stride=2, padding=1, dilation=1, ceil_mode=False)
          (layer1): Sequential(
            (0): BasicBlock(
              (conv1): Conv2d(64, 64, kernel_size=(3, 3), stride=(1, 1), padding=(1, 1), bias=False)
              (bn1): FrozenBatchNorm2d()
              (relu): ReLU(inplace=True)
              (conv2): Conv2d(64, 64, kernel_size=(3, 3), stride=(1, 1), padding=(1, 1), bias=False)
              (bn2): FrozenBatchNorm2d()
            )
            (1): BasicBlock(
              (conv1): Conv2d(64, 64, kernel_size=(3, 3), stride=(1, 1), padding=(1, 1), bias=False)
              (bn1): FrozenBatchNorm2d()
              (relu): ReLU(inplace=True)
              (conv2): Conv2d(64, 64, kernel_size=(3, 3), stride=(1, 1), padding=(1, 1), bias=False)
              (bn2): FrozenBatchNorm2d()
            )
          )
          (layer2): Sequential(
            (0): BasicBlock(
              (conv1): Conv2d(64, 128, kernel_size=(3, 3), stride=(2, 2), padding=(1, 1), bias=False)
              (bn1): FrozenBatchNorm2d()
              (relu): ReLU(inplace=True)
              (conv2): Conv2d(128, 128, kernel_size=(3, 3), stride=(1, 1), padding=(1, 1), bias=False)
              (bn2): FrozenBatchNorm2d()
              (downsample): Sequential(
                (0): Conv2d(64, 128, kernel_size=(1, 1), stride=(2, 2), bias=False)
                (1): FrozenBatchNorm2d()
              )
            )
            (1): BasicBlock(
              (conv1): Conv2d(128, 128, kernel_size=(3, 3), stride=(1, 1), padding=(1, 1), bias=False)
              (bn1): FrozenBatchNorm2d()
              (relu): ReLU(inplace=True)
              (conv2): Conv2d(128, 128, kernel_size=(3, 3), stride=(1, 1), padding=(1, 1), bias=False)
              (bn2): FrozenBatchNorm2d()
            )
          )
          (layer3): Sequential(
            (0): BasicBlock(
              (conv1): Conv2d(128, 256, kernel_size=(3, 3), stride=(2, 2), padding=(1, 1), bias=False)
              (bn1): FrozenBatchNorm2d()
              (relu): ReLU(inplace=True)
              (conv2): Conv2d(256, 256, kernel_size=(3, 3), stride=(1, 1), padding=(1, 1), bias=False)
              (bn2): FrozenBatchNorm2d()
              (downsample): Sequential(
                (0): Conv2d(128, 256, kernel_size=(1, 1), stride=(2, 2), bias=False)
                (1): FrozenBatchNorm2d()
              )
            )
            (1): BasicBlock(
              (conv1): Conv2d(256, 256, kernel_size=(3, 3), stride=(1, 1), padding=(1, 1), bias=False)
              (bn1): FrozenBatchNorm2d()
              (relu): ReLU(inplace=True)
              (conv2): Conv2d(256, 256, kernel_size=(3, 3), stride=(1, 1), padding=(1, 1), bias=False)
              (bn2): FrozenBatchNorm2d()
            )
          )
          (layer4): Sequential(
            (0): BasicBlock(
              (conv1): Conv2d(256, 512, kernel_size=(3, 3), stride=(2, 2), padding=(1, 1), bias=False)
              (bn1): FrozenBatchNorm2d()
              (relu): ReLU(inplace=True)
              (conv2): Conv2d(512, 512, kernel_size=(3, 3), stride=(1, 1), padding=(1, 1), bias=False)
              (bn2): FrozenBatchNorm2d()
              (downsample): Sequential(
                (0): Conv2d(256, 512, kernel_size=(1, 1), stride=(2, 2), bias=False)
                (1): FrozenBatchNorm2d()
              )
            )
            (1): BasicBlock(
              (conv1): Conv2d(512, 512, kernel_size=(3, 3), stride=(1, 1), padding=(1, 1), bias=False)
              (bn1): FrozenBatchNorm2d()
              (relu): ReLU(inplace=True)
              (conv2): Conv2d(512, 512, kernel_size=(3, 3), stride=(1, 1), padding=(1, 1), bias=False)
              (bn2): FrozenBatchNorm2d()
            )
          )
        )
      )
      (1): PositionEmbeddingSine()
    )
    (1): Joiner(
      (0): background_Backbone(
        (body): IntermediateLayerGetter(
          (conv1): Sequential(
            (0): Conv2d(3, 64, kernel_size=(7, 7), stride=(2, 2), padding=(3, 3), bias=False)
            (1): BatchNorm2d(64, eps=1e-05, momentum=0.1, affine=True, track_running_stats=True)
            (2): ReLU(inplace=True)
          )
          (mpool1): MaxPool2d(kernel_size=3, stride=2, padding=1, dilation=1, ceil_mode=False)
          (residual_block1): ResidualBlock(
            (bn1): BatchNorm2d(64, eps=1e-05, momentum=0.1, affine=True, track_running_stats=True)
            (relu): ReLU(inplace=True)
            (conv1): Conv2d(64, 16, kernel_size=(1, 1), stride=(1, 1), bias=False)
            (bn2): BatchNorm2d(16, eps=1e-05, momentum=0.1, affine=True, track_running_stats=True)
            (conv2): Conv2d(16, 16, kernel_size=(3, 3), stride=(1, 1), padding=(1, 1), bias=False)
            (bn3): BatchNorm2d(16, eps=1e-05, momentum=0.1, affine=True, track_running_stats=True)
            (conv3): Conv2d(16, 64, kernel_size=(1, 1), stride=(1, 1), bias=False)
            (conv4): Conv2d(64, 64, kernel_size=(1, 1), stride=(1, 1), bias=False)
          )
          (attention_module1): AttentionModuleStage1(
            (first_residual_blocks): ResidualBlock(
              (bn1): BatchNorm2d(64, eps=1e-05, momentum=0.1, affine=True, track_running_stats=True)
              (relu): ReLU(inplace=True)
              (conv1): Conv2d(64, 16, kernel_size=(1, 1), stride=(1, 1), bias=False)
              (bn2): BatchNorm2d(16, eps=1e-05, momentum=0.1, affine=True, track_running_stats=True)
              (conv2): Conv2d(16, 16, kernel_size=(3, 3), stride=(1, 1), padding=(1, 1), bias=False)
              (bn3): BatchNorm2d(16, eps=1e-05, momentum=0.1, affine=True, track_running_stats=True)
              (conv3): Conv2d(16, 64, kernel_size=(1, 1), stride=(1, 1), bias=False)
              (conv4): Conv2d(64, 64, kernel_size=(1, 1), stride=(1, 1), bias=False)
            )
            (trunk_branches): Sequential(
              (0): ResidualBlock(
                (bn1): BatchNorm2d(64, eps=1e-05, momentum=0.1, affine=True, track_running_stats=True)
                (relu): ReLU(inplace=True)
                (conv1): Conv2d(64, 16, kernel_size=(1, 1), stride=(1, 1), bias=False)
                (bn2): BatchNorm2d(16, eps=1e-05, momentum=0.1, affine=True, track_running_stats=True)
                (conv2): Conv2d(16, 16, kernel_size=(3, 3), stride=(1, 1), padding=(1, 1), bias=False)
                (bn3): BatchNorm2d(16, eps=1e-05, momentum=0.1, affine=True, track_running_stats=True)
                (conv3): Conv2d(16, 64, kernel_size=(1, 1), stride=(1, 1), bias=False)
                (conv4): Conv2d(64, 64, kernel_size=(1, 1), stride=(1, 1), bias=False)
              )
              (1): ResidualBlock(
                (bn1): BatchNorm2d(64, eps=1e-05, momentum=0.1, affine=True, track_running_stats=True)
                (relu): ReLU(inplace=True)
                (conv1): Conv2d(64, 16, kernel_size=(1, 1), stride=(1, 1), bias=False)
                (bn2): BatchNorm2d(16, eps=1e-05, momentum=0.1, affine=True, track_running_stats=True)
                (conv2): Conv2d(16, 16, kernel_size=(3, 3), stride=(1, 1), padding=(1, 1), bias=False)
                (bn3): BatchNorm2d(16, eps=1e-05, momentum=0.1, affine=True, track_running_stats=True)
                (conv3): Conv2d(16, 64, kernel_size=(1, 1), stride=(1, 1), bias=False)
                (conv4): Conv2d(64, 64, kernel_size=(1, 1), stride=(1, 1), bias=False)
              )
            )
            (mpool1): MaxPool2d(kernel_size=3, stride=2, padding=1, dilation=1, ceil_mode=False)
            (softmax1_blocks): ResidualBlock(
              (bn1): BatchNorm2d(64, eps=1e-05, momentum=0.1, affine=True, track_running_stats=True)
              (relu): ReLU(inplace=True)
              (conv1): Conv2d(64, 16, kernel_size=(1, 1), stride=(1, 1), bias=False)
              (bn2): BatchNorm2d(16, eps=1e-05, momentum=0.1, affine=True, track_running_stats=True)
              (conv2): Conv2d(16, 16, kernel_size=(3, 3), stride=(1, 1), padding=(1, 1), bias=False)
              (bn3): BatchNorm2d(16, eps=1e-05, momentum=0.1, affine=True, track_running_stats=True)
              (conv3): Conv2d(16, 64, kernel_size=(1, 1), stride=(1, 1), bias=False)
              (conv4): Conv2d(64, 64, kernel_size=(1, 1), stride=(1, 1), bias=False)
            )
            (skip1_connection_residual_block): ResidualBlock(
              (bn1): BatchNorm2d(64, eps=1e-05, momentum=0.1, affine=True, track_running_stats=True)
              (relu): ReLU(inplace=True)
              (conv1): Conv2d(64, 16, kernel_size=(1, 1), stride=(1, 1), bias=False)
              (bn2): BatchNorm2d(16, eps=1e-05, momentum=0.1, affine=True, track_running_stats=True)
              (conv2): Conv2d(16, 16, kernel_size=(3, 3), stride=(1, 1), padding=(1, 1), bias=False)
              (bn3): BatchNorm2d(16, eps=1e-05, momentum=0.1, affine=True, track_running_stats=True)
              (conv3): Conv2d(16, 64, kernel_size=(1, 1), stride=(1, 1), bias=False)
              (conv4): Conv2d(64, 64, kernel_size=(1, 1), stride=(1, 1), bias=False)
            )
            (mpool2): MaxPool2d(kernel_size=3, stride=2, padding=1, dilation=1, ceil_mode=False)
            (softmax2_blocks): ResidualBlock(
              (bn1): BatchNorm2d(64, eps=1e-05, momentum=0.1, affine=True, track_running_stats=True)
              (relu): ReLU(inplace=True)
              (conv1): Conv2d(64, 16, kernel_size=(1, 1), stride=(1, 1), bias=False)
              (bn2): BatchNorm2d(16, eps=1e-05, momentum=0.1, affine=True, track_running_stats=True)
              (conv2): Conv2d(16, 16, kernel_size=(3, 3), stride=(1, 1), padding=(1, 1), bias=False)
              (bn3): BatchNorm2d(16, eps=1e-05, momentum=0.1, affine=True, track_running_stats=True)
              (conv3): Conv2d(16, 64, kernel_size=(1, 1), stride=(1, 1), bias=False)
              (conv4): Conv2d(64, 64, kernel_size=(1, 1), stride=(1, 1), bias=False)
            )
            (skip2_connection_residual_block): ResidualBlock(
              (bn1): BatchNorm2d(64, eps=1e-05, momentum=0.1, affine=True, track_running_stats=True)
              (relu): ReLU(inplace=True)
              (conv1): Conv2d(64, 16, kernel_size=(1, 1), stride=(1, 1), bias=False)
              (bn2): BatchNorm2d(16, eps=1e-05, momentum=0.1, affine=True, track_running_stats=True)
              (conv2): Conv2d(16, 16, kernel_size=(3, 3), stride=(1, 1), padding=(1, 1), bias=False)
              (bn3): BatchNorm2d(16, eps=1e-05, momentum=0.1, affine=True, track_running_stats=True)
              (conv3): Conv2d(16, 64, kernel_size=(1, 1), stride=(1, 1), bias=False)
              (conv4): Conv2d(64, 64, kernel_size=(1, 1), stride=(1, 1), bias=False)
            )
            (mpool3): MaxPool2d(kernel_size=3, stride=2, padding=1, dilation=1, ceil_mode=False)
            (softmax3_blocks): Sequential(
              (0): ResidualBlock(
                (bn1): BatchNorm2d(64, eps=1e-05, momentum=0.1, affine=True, track_running_stats=True)
                (relu): ReLU(inplace=True)
                (conv1): Conv2d(64, 16, kernel_size=(1, 1), stride=(1, 1), bias=False)
                (bn2): BatchNorm2d(16, eps=1e-05, momentum=0.1, affine=True, track_running_stats=True)
                (conv2): Conv2d(16, 16, kernel_size=(3, 3), stride=(1, 1), padding=(1, 1), bias=False)
                (bn3): BatchNorm2d(16, eps=1e-05, momentum=0.1, affine=True, track_running_stats=True)
                (conv3): Conv2d(16, 64, kernel_size=(1, 1), stride=(1, 1), bias=False)
                (conv4): Conv2d(64, 64, kernel_size=(1, 1), stride=(1, 1), bias=False)
              )
              (1): ResidualBlock(
                (bn1): BatchNorm2d(64, eps=1e-05, momentum=0.1, affine=True, track_running_stats=True)
                (relu): ReLU(inplace=True)
                (conv1): Conv2d(64, 16, kernel_size=(1, 1), stride=(1, 1), bias=False)
                (bn2): BatchNorm2d(16, eps=1e-05, momentum=0.1, affine=True, track_running_stats=True)
                (conv2): Conv2d(16, 16, kernel_size=(3, 3), stride=(1, 1), padding=(1, 1), bias=False)
                (bn3): BatchNorm2d(16, eps=1e-05, momentum=0.1, affine=True, track_running_stats=True)
                (conv3): Conv2d(16, 64, kernel_size=(1, 1), stride=(1, 1), bias=False)
                (conv4): Conv2d(64, 64, kernel_size=(1, 1), stride=(1, 1), bias=False)
              )
            )
            (interpolation3): UpsamplingBilinear2d(size=(30, 40), mode='bilinear')
            (softmax4_blocks): ResidualBlock(
              (bn1): BatchNorm2d(64, eps=1e-05, momentum=0.1, affine=True, track_running_stats=True)
              (relu): ReLU(inplace=True)
              (conv1): Conv2d(64, 16, kernel_size=(1, 1), stride=(1, 1), bias=False)
              (bn2): BatchNorm2d(16, eps=1e-05, momentum=0.1, affine=True, track_running_stats=True)
              (conv2): Conv2d(16, 16, kernel_size=(3, 3), stride=(1, 1), padding=(1, 1), bias=False)
              (bn3): BatchNorm2d(16, eps=1e-05, momentum=0.1, affine=True, track_running_stats=True)
              (conv3): Conv2d(16, 64, kernel_size=(1, 1), stride=(1, 1), bias=False)
              (conv4): Conv2d(64, 64, kernel_size=(1, 1), stride=(1, 1), bias=False)
            )
            (interpolation2): UpsamplingBilinear2d(size=(60, 80), mode='bilinear')
            (softmax5_blocks): ResidualBlock(
              (bn1): BatchNorm2d(64, eps=1e-05, momentum=0.1, affine=True, track_running_stats=True)
              (relu): ReLU(inplace=True)
              (conv1): Conv2d(64, 16, kernel_size=(1, 1), stride=(1, 1), bias=False)
              (bn2): BatchNorm2d(16, eps=1e-05, momentum=0.1, affine=True, track_running_stats=True)
              (conv2): Conv2d(16, 16, kernel_size=(3, 3), stride=(1, 1), padding=(1, 1), bias=False)
              (bn3): BatchNorm2d(16, eps=1e-05, momentum=0.1, affine=True, track_running_stats=True)
              (conv3): Conv2d(16, 64, kernel_size=(1, 1), stride=(1, 1), bias=False)
              (conv4): Conv2d(64, 64, kernel_size=(1, 1), stride=(1, 1), bias=False)
            )
            (interpolation1): UpsamplingBilinear2d(size=(120, 160), mode='bilinear')
            (softmax6_blocks): Sequential(
              (0): BatchNorm2d(64, eps=1e-05, momentum=0.1, affine=True, track_running_stats=True)
              (1): ReLU(inplace=True)
              (2): Conv2d(64, 64, kernel_size=(1, 1), stride=(1, 1), bias=False)
              (3): BatchNorm2d(64, eps=1e-05, momentum=0.1, affine=True, track_running_stats=True)
              (4): ReLU(inplace=True)
              (5): Conv2d(64, 64, kernel_size=(1, 1), stride=(1, 1), bias=False)
              (6): Sigmoid()
            )
            (last_blocks): ResidualBlock(
              (bn1): BatchNorm2d(64, eps=1e-05, momentum=0.1, affine=True, track_running_stats=True)
              (relu): ReLU(inplace=True)
              (conv1): Conv2d(64, 16, kernel_size=(1, 1), stride=(1, 1), bias=False)
              (bn2): BatchNorm2d(16, eps=1e-05, momentum=0.1, affine=True, track_running_stats=True)
              (conv2): Conv2d(16, 16, kernel_size=(3, 3), stride=(1, 1), padding=(1, 1), bias=False)
              (bn3): BatchNorm2d(16, eps=1e-05, momentum=0.1, affine=True, track_running_stats=True)
              (conv3): Conv2d(16, 64, kernel_size=(1, 1), stride=(1, 1), bias=False)
              (conv4): Conv2d(64, 64, kernel_size=(1, 1), stride=(1, 1), bias=False)
            )
          )
          (residual_block2): ResidualBlock(
            (bn1): BatchNorm2d(64, eps=1e-05, momentum=0.1, affine=True, track_running_stats=True)
            (relu): ReLU(inplace=True)
            (conv1): Conv2d(64, 32, kernel_size=(1, 1), stride=(1, 1), bias=False)
            (bn2): BatchNorm2d(32, eps=1e-05, momentum=0.1, affine=True, track_running_stats=True)
            (conv2): Conv2d(32, 32, kernel_size=(3, 3), stride=(2, 2), padding=(1, 1), bias=False)
            (bn3): BatchNorm2d(32, eps=1e-05, momentum=0.1, affine=True, track_running_stats=True)
            (conv3): Conv2d(32, 128, kernel_size=(1, 1), stride=(1, 1), bias=False)
            (conv4): Conv2d(64, 128, kernel_size=(1, 1), stride=(2, 2), bias=False)
          )
          (attention_module2): AttentionModuleStage2(
            (first_residual_blocks): ResidualBlock(
              (bn1): BatchNorm2d(128, eps=1e-05, momentum=0.1, affine=True, track_running_stats=True)
              (relu): ReLU(inplace=True)
              (conv1): Conv2d(128, 32, kernel_size=(1, 1), stride=(1, 1), bias=False)
              (bn2): BatchNorm2d(32, eps=1e-05, momentum=0.1, affine=True, track_running_stats=True)
              (conv2): Conv2d(32, 32, kernel_size=(3, 3), stride=(1, 1), padding=(1, 1), bias=False)
              (bn3): BatchNorm2d(32, eps=1e-05, momentum=0.1, affine=True, track_running_stats=True)
              (conv3): Conv2d(32, 128, kernel_size=(1, 1), stride=(1, 1), bias=False)
              (conv4): Conv2d(128, 128, kernel_size=(1, 1), stride=(1, 1), bias=False)
            )
            (trunk_branches): Sequential(
              (0): ResidualBlock(
                (bn1): BatchNorm2d(128, eps=1e-05, momentum=0.1, affine=True, track_running_stats=True)
                (relu): ReLU(inplace=True)
                (conv1): Conv2d(128, 32, kernel_size=(1, 1), stride=(1, 1), bias=False)
                (bn2): BatchNorm2d(32, eps=1e-05, momentum=0.1, affine=True, track_running_stats=True)
                (conv2): Conv2d(32, 32, kernel_size=(3, 3), stride=(1, 1), padding=(1, 1), bias=False)
                (bn3): BatchNorm2d(32, eps=1e-05, momentum=0.1, affine=True, track_running_stats=True)
                (conv3): Conv2d(32, 128, kernel_size=(1, 1), stride=(1, 1), bias=False)
                (conv4): Conv2d(128, 128, kernel_size=(1, 1), stride=(1, 1), bias=False)
              )
              (1): ResidualBlock(
                (bn1): BatchNorm2d(128, eps=1e-05, momentum=0.1, affine=True, track_running_stats=True)
                (relu): ReLU(inplace=True)
                (conv1): Conv2d(128, 32, kernel_size=(1, 1), stride=(1, 1), bias=False)
                (bn2): BatchNorm2d(32, eps=1e-05, momentum=0.1, affine=True, track_running_stats=True)
                (conv2): Conv2d(32, 32, kernel_size=(3, 3), stride=(1, 1), padding=(1, 1), bias=False)
                (bn3): BatchNorm2d(32, eps=1e-05, momentum=0.1, affine=True, track_running_stats=True)
                (conv3): Conv2d(32, 128, kernel_size=(1, 1), stride=(1, 1), bias=False)
                (conv4): Conv2d(128, 128, kernel_size=(1, 1), stride=(1, 1), bias=False)
              )
            )
            (mpool1): MaxPool2d(kernel_size=3, stride=2, padding=1, dilation=1, ceil_mode=False)
            (softmax1_blocks): ResidualBlock(
              (bn1): BatchNorm2d(128, eps=1e-05, momentum=0.1, affine=True, track_running_stats=True)
              (relu): ReLU(inplace=True)
              (conv1): Conv2d(128, 32, kernel_size=(1, 1), stride=(1, 1), bias=False)
              (bn2): BatchNorm2d(32, eps=1e-05, momentum=0.1, affine=True, track_running_stats=True)
              (conv2): Conv2d(32, 32, kernel_size=(3, 3), stride=(1, 1), padding=(1, 1), bias=False)
              (bn3): BatchNorm2d(32, eps=1e-05, momentum=0.1, affine=True, track_running_stats=True)
              (conv3): Conv2d(32, 128, kernel_size=(1, 1), stride=(1, 1), bias=False)
              (conv4): Conv2d(128, 128, kernel_size=(1, 1), stride=(1, 1), bias=False)
            )
            (skip1_connection_residual_block): ResidualBlock(
              (bn1): BatchNorm2d(128, eps=1e-05, momentum=0.1, affine=True, track_running_stats=True)
              (relu): ReLU(inplace=True)
              (conv1): Conv2d(128, 32, kernel_size=(1, 1), stride=(1, 1), bias=False)
              (bn2): BatchNorm2d(32, eps=1e-05, momentum=0.1, affine=True, track_running_stats=True)
              (conv2): Conv2d(32, 32, kernel_size=(3, 3), stride=(1, 1), padding=(1, 1), bias=False)
              (bn3): BatchNorm2d(32, eps=1e-05, momentum=0.1, affine=True, track_running_stats=True)
              (conv3): Conv2d(32, 128, kernel_size=(1, 1), stride=(1, 1), bias=False)
              (conv4): Conv2d(128, 128, kernel_size=(1, 1), stride=(1, 1), bias=False)
            )
            (mpool2): MaxPool2d(kernel_size=3, stride=2, padding=1, dilation=1, ceil_mode=False)
            (softmax2_blocks): Sequential(
              (0): ResidualBlock(
                (bn1): BatchNorm2d(128, eps=1e-05, momentum=0.1, affine=True, track_running_stats=True)
                (relu): ReLU(inplace=True)
                (conv1): Conv2d(128, 32, kernel_size=(1, 1), stride=(1, 1), bias=False)
                (bn2): BatchNorm2d(32, eps=1e-05, momentum=0.1, affine=True, track_running_stats=True)
                (conv2): Conv2d(32, 32, kernel_size=(3, 3), stride=(1, 1), padding=(1, 1), bias=False)
                (bn3): BatchNorm2d(32, eps=1e-05, momentum=0.1, affine=True, track_running_stats=True)
                (conv3): Conv2d(32, 128, kernel_size=(1, 1), stride=(1, 1), bias=False)
                (conv4): Conv2d(128, 128, kernel_size=(1, 1), stride=(1, 1), bias=False)
              )
              (1): ResidualBlock(
                (bn1): BatchNorm2d(128, eps=1e-05, momentum=0.1, affine=True, track_running_stats=True)
                (relu): ReLU(inplace=True)
                (conv1): Conv2d(128, 32, kernel_size=(1, 1), stride=(1, 1), bias=False)
                (bn2): BatchNorm2d(32, eps=1e-05, momentum=0.1, affine=True, track_running_stats=True)
                (conv2): Conv2d(32, 32, kernel_size=(3, 3), stride=(1, 1), padding=(1, 1), bias=False)
                (bn3): BatchNorm2d(32, eps=1e-05, momentum=0.1, affine=True, track_running_stats=True)
                (conv3): Conv2d(32, 128, kernel_size=(1, 1), stride=(1, 1), bias=False)
                (conv4): Conv2d(128, 128, kernel_size=(1, 1), stride=(1, 1), bias=False)
              )
            )
            (interpolation2): UpsamplingBilinear2d(size=(30, 40), mode='bilinear')
            (softmax3_blocks): ResidualBlock(
              (bn1): BatchNorm2d(128, eps=1e-05, momentum=0.1, affine=True, track_running_stats=True)
              (relu): ReLU(inplace=True)
              (conv1): Conv2d(128, 32, kernel_size=(1, 1), stride=(1, 1), bias=False)
              (bn2): BatchNorm2d(32, eps=1e-05, momentum=0.1, affine=True, track_running_stats=True)
              (conv2): Conv2d(32, 32, kernel_size=(3, 3), stride=(1, 1), padding=(1, 1), bias=False)
              (bn3): BatchNorm2d(32, eps=1e-05, momentum=0.1, affine=True, track_running_stats=True)
              (conv3): Conv2d(32, 128, kernel_size=(1, 1), stride=(1, 1), bias=False)
              (conv4): Conv2d(128, 128, kernel_size=(1, 1), stride=(1, 1), bias=False)
            )
            (interpolation1): UpsamplingBilinear2d(size=(60, 80), mode='bilinear')
            (softmax4_blocks): Sequential(
              (0): BatchNorm2d(128, eps=1e-05, momentum=0.1, affine=True, track_running_stats=True)
              (1): ReLU(inplace=True)
              (2): Conv2d(128, 128, kernel_size=(1, 1), stride=(1, 1), bias=False)
              (3): BatchNorm2d(128, eps=1e-05, momentum=0.1, affine=True, track_running_stats=True)
              (4): ReLU(inplace=True)
              (5): Conv2d(128, 128, kernel_size=(1, 1), stride=(1, 1), bias=False)
              (6): Sigmoid()
            )
            (last_blocks): ResidualBlock(
              (bn1): BatchNorm2d(128, eps=1e-05, momentum=0.1, affine=True, track_running_stats=True)
              (relu): ReLU(inplace=True)
              (conv1): Conv2d(128, 32, kernel_size=(1, 1), stride=(1, 1), bias=False)
              (bn2): BatchNorm2d(32, eps=1e-05, momentum=0.1, affine=True, track_running_stats=True)
              (conv2): Conv2d(32, 32, kernel_size=(3, 3), stride=(1, 1), padding=(1, 1), bias=False)
              (bn3): BatchNorm2d(32, eps=1e-05, momentum=0.1, affine=True, track_running_stats=True)
              (conv3): Conv2d(32, 128, kernel_size=(1, 1), stride=(1, 1), bias=False)
              (conv4): Conv2d(128, 128, kernel_size=(1, 1), stride=(1, 1), bias=False)
            )
          )
          (residual_block3): ResidualBlock(
            (bn1): BatchNorm2d(128, eps=1e-05, momentum=0.1, affine=True, track_running_stats=True)
            (relu): ReLU(inplace=True)
            (conv1): Conv2d(128, 64, kernel_size=(1, 1), stride=(1, 1), bias=False)
            (bn2): BatchNorm2d(64, eps=1e-05, momentum=0.1, affine=True, track_running_stats=True)
            (conv2): Conv2d(64, 64, kernel_size=(3, 3), stride=(2, 2), padding=(1, 1), bias=False)
            (bn3): BatchNorm2d(64, eps=1e-05, momentum=0.1, affine=True, track_running_stats=True)
            (conv3): Conv2d(64, 256, kernel_size=(1, 1), stride=(1, 1), bias=False)
            (conv4): Conv2d(128, 256, kernel_size=(1, 1), stride=(2, 2), bias=False)
          )
          (attention_module3): AttentionModuleStage3(
            (first_residual_blocks): ResidualBlock(
              (bn1): BatchNorm2d(256, eps=1e-05, momentum=0.1, affine=True, track_running_stats=True)
              (relu): ReLU(inplace=True)
              (conv1): Conv2d(256, 64, kernel_size=(1, 1), stride=(1, 1), bias=False)
              (bn2): BatchNorm2d(64, eps=1e-05, momentum=0.1, affine=True, track_running_stats=True)
              (conv2): Conv2d(64, 64, kernel_size=(3, 3), stride=(1, 1), padding=(1, 1), bias=False)
              (bn3): BatchNorm2d(64, eps=1e-05, momentum=0.1, affine=True, track_running_stats=True)
              (conv3): Conv2d(64, 256, kernel_size=(1, 1), stride=(1, 1), bias=False)
              (conv4): Conv2d(256, 256, kernel_size=(1, 1), stride=(1, 1), bias=False)
            )
            (trunk_branches): Sequential(
              (0): ResidualBlock(
                (bn1): BatchNorm2d(256, eps=1e-05, momentum=0.1, affine=True, track_running_stats=True)
                (relu): ReLU(inplace=True)
                (conv1): Conv2d(256, 64, kernel_size=(1, 1), stride=(1, 1), bias=False)
                (bn2): BatchNorm2d(64, eps=1e-05, momentum=0.1, affine=True, track_running_stats=True)
                (conv2): Conv2d(64, 64, kernel_size=(3, 3), stride=(1, 1), padding=(1, 1), bias=False)
                (bn3): BatchNorm2d(64, eps=1e-05, momentum=0.1, affine=True, track_running_stats=True)
                (conv3): Conv2d(64, 256, kernel_size=(1, 1), stride=(1, 1), bias=False)
                (conv4): Conv2d(256, 256, kernel_size=(1, 1), stride=(1, 1), bias=False)
              )
              (1): ResidualBlock(
                (bn1): BatchNorm2d(256, eps=1e-05, momentum=0.1, affine=True, track_running_stats=True)
                (relu): ReLU(inplace=True)
                (conv1): Conv2d(256, 64, kernel_size=(1, 1), stride=(1, 1), bias=False)
                (bn2): BatchNorm2d(64, eps=1e-05, momentum=0.1, affine=True, track_running_stats=True)
                (conv2): Conv2d(64, 64, kernel_size=(3, 3), stride=(1, 1), padding=(1, 1), bias=False)
                (bn3): BatchNorm2d(64, eps=1e-05, momentum=0.1, affine=True, track_running_stats=True)
                (conv3): Conv2d(64, 256, kernel_size=(1, 1), stride=(1, 1), bias=False)
                (conv4): Conv2d(256, 256, kernel_size=(1, 1), stride=(1, 1), bias=False)
              )
            )
            (mpool1): MaxPool2d(kernel_size=3, stride=2, padding=1, dilation=1, ceil_mode=False)
            (softmax1_blocks): Sequential(
              (0): ResidualBlock(
                (bn1): BatchNorm2d(256, eps=1e-05, momentum=0.1, affine=True, track_running_stats=True)
                (relu): ReLU(inplace=True)
                (conv1): Conv2d(256, 64, kernel_size=(1, 1), stride=(1, 1), bias=False)
                (bn2): BatchNorm2d(64, eps=1e-05, momentum=0.1, affine=True, track_running_stats=True)
                (conv2): Conv2d(64, 64, kernel_size=(3, 3), stride=(1, 1), padding=(1, 1), bias=False)
                (bn3): BatchNorm2d(64, eps=1e-05, momentum=0.1, affine=True, track_running_stats=True)
                (conv3): Conv2d(64, 256, kernel_size=(1, 1), stride=(1, 1), bias=False)
                (conv4): Conv2d(256, 256, kernel_size=(1, 1), stride=(1, 1), bias=False)
              )
              (1): ResidualBlock(
                (bn1): BatchNorm2d(256, eps=1e-05, momentum=0.1, affine=True, track_running_stats=True)
                (relu): ReLU(inplace=True)
                (conv1): Conv2d(256, 64, kernel_size=(1, 1), stride=(1, 1), bias=False)
                (bn2): BatchNorm2d(64, eps=1e-05, momentum=0.1, affine=True, track_running_stats=True)
                (conv2): Conv2d(64, 64, kernel_size=(3, 3), stride=(1, 1), padding=(1, 1), bias=False)
                (bn3): BatchNorm2d(64, eps=1e-05, momentum=0.1, affine=True, track_running_stats=True)
                (conv3): Conv2d(64, 256, kernel_size=(1, 1), stride=(1, 1), bias=False)
                (conv4): Conv2d(256, 256, kernel_size=(1, 1), stride=(1, 1), bias=False)
              )
            )
            (interpolation1): UpsamplingBilinear2d(size=(30, 40), mode='bilinear')
            (softmax2_blocks): Sequential(
              (0): BatchNorm2d(256, eps=1e-05, momentum=0.1, affine=True, track_running_stats=True)
              (1): ReLU(inplace=True)
              (2): Conv2d(256, 256, kernel_size=(1, 1), stride=(1, 1), bias=False)
              (3): BatchNorm2d(256, eps=1e-05, momentum=0.1, affine=True, track_running_stats=True)
              (4): ReLU(inplace=True)
              (5): Conv2d(256, 256, kernel_size=(1, 1), stride=(1, 1), bias=False)
              (6): Sigmoid()
            )
            (last_blocks): ResidualBlock(
              (bn1): BatchNorm2d(256, eps=1e-05, momentum=0.1, affine=True, track_running_stats=True)
              (relu): ReLU(inplace=True)
              (conv1): Conv2d(256, 64, kernel_size=(1, 1), stride=(1, 1), bias=False)
              (bn2): BatchNorm2d(64, eps=1e-05, momentum=0.1, affine=True, track_running_stats=True)
              (conv2): Conv2d(64, 64, kernel_size=(3, 3), stride=(1, 1), padding=(1, 1), bias=False)
              (bn3): BatchNorm2d(64, eps=1e-05, momentum=0.1, affine=True, track_running_stats=True)
              (conv3): Conv2d(64, 256, kernel_size=(1, 1), stride=(1, 1), bias=False)
              (conv4): Conv2d(256, 256, kernel_size=(1, 1), stride=(1, 1), bias=False)
            )
          )
          (layer4): Sequential(
            (0): ResidualBlock(
              (bn1): BatchNorm2d(256, eps=1e-05, momentum=0.1, affine=True, track_running_stats=True)
              (relu): ReLU(inplace=True)
              (conv1): Conv2d(256, 128, kernel_size=(1, 1), stride=(1, 1), bias=False)
              (bn2): BatchNorm2d(128, eps=1e-05, momentum=0.1, affine=True, track_running_stats=True)
              (conv2): Conv2d(128, 128, kernel_size=(3, 3), stride=(2, 2), padding=(1, 1), bias=False)
              (bn3): BatchNorm2d(128, eps=1e-05, momentum=0.1, affine=True, track_running_stats=True)
              (conv3): Conv2d(128, 512, kernel_size=(1, 1), stride=(1, 1), bias=False)
              (conv4): Conv2d(256, 512, kernel_size=(1, 1), stride=(2, 2), bias=False)
            )
            (1): ResidualBlock(
              (bn1): BatchNorm2d(512, eps=1e-05, momentum=0.1, affine=True, track_running_stats=True)
              (relu): ReLU(inplace=True)
              (conv1): Conv2d(512, 128, kernel_size=(1, 1), stride=(1, 1), bias=False)
              (bn2): BatchNorm2d(128, eps=1e-05, momentum=0.1, affine=True, track_running_stats=True)
              (conv2): Conv2d(128, 128, kernel_size=(3, 3), stride=(1, 1), padding=(1, 1), bias=False)
              (bn3): BatchNorm2d(128, eps=1e-05, momentum=0.1, affine=True, track_running_stats=True)
              (conv3): Conv2d(128, 512, kernel_size=(1, 1), stride=(1, 1), bias=False)
              (conv4): Conv2d(512, 512, kernel_size=(1, 1), stride=(1, 1), bias=False)
            )
            (2): ResidualBlock(
              (bn1): BatchNorm2d(512, eps=1e-05, momentum=0.1, affine=True, track_running_stats=True)
              (relu): ReLU(inplace=True)
              (conv1): Conv2d(512, 128, kernel_size=(1, 1), stride=(1, 1), bias=False)
              (bn2): BatchNorm2d(128, eps=1e-05, momentum=0.1, affine=True, track_running_stats=True)
              (conv2): Conv2d(128, 128, kernel_size=(3, 3), stride=(1, 1), padding=(1, 1), bias=False)
              (bn3): BatchNorm2d(128, eps=1e-05, momentum=0.1, affine=True, track_running_stats=True)
              (conv3): Conv2d(128, 512, kernel_size=(1, 1), stride=(1, 1), bias=False)
              (conv4): Conv2d(512, 512, kernel_size=(1, 1), stride=(1, 1), bias=False)
            )
            (3): BatchNorm2d(512, eps=1e-05, momentum=0.1, affine=True, track_running_stats=True)
          )
        )
      )
      (1): PositionEmbeddingSine()
    )
  )
  (input_proj_robot_state): Linear(in_features=7, out_features=512, bias=True)
  (cls_embed): Embedding(1, 512)
  (encoder_action_proj): Linear(in_features=8, out_features=512, bias=True)
  (encoder_joint_proj): Linear(in_features=7, out_features=512, bias=True)
  (latent_proj): Linear(in_features=512, out_features=64, bias=True)
  (latent_out_proj): Linear(in_features=32, out_features=512, bias=True)
  (additional_pos_embed): Embedding(2, 512)
)/mnt/c/Users/cbrnt/OneDrive/문서/act-plus-plus/imitate_episodes.py:685: FutureWarning: You are using `torch.load` with `weights_only=False` (the current default value), which uses the default pickle module implicitly. It is possible to construct malicious pickle data which will execute arbitrary code during unpickling (See https://github.com/pytorch/pytorch/blob/main/SECURITY.md#untrusted-m
…
